best_nn_adam.pth (torch, 42622 bytes, 9 tensors)

layer1.weight f4 [96, 48]
0	0x3dcabf6e	0.098997936
1	0x3e2fb968	0.1716057
2	0x3eab00ec	0.3339914
3	0x3e98aea2	0.29820734
4	0xbeeacc38	-0.45858932
5	0xbf1d0f54	-0.61351514
6	0x3e03b3c4	0.12861544
7	0x3e75edce	0.24016497
8	0x3ef1cd1c	0.472268
9	0xbf4144b1	-0.7549544
10	0xbed54b9f	-0.41659257
11	0xbf547ab6	-0.8299974
12	0x3e008a24	0.12552696
13	0x3d4f7d71	0.05065674
14	0x3db30725	0.08741597
15	0xbe46a896	-0.19400248
16	0x3d05de42	0.032682665
17	0xbd7c3449	-0.0615733
18	0xbdd71b63	-0.105032705
19	0xbb405bd4	-0.0029351609
20	0x3c862676	0.016375761
21	0x3e09a068	0.13440096
22	0x3bcaa24b	0.0061838976
23	0x3e35789d	0.17721792
24	0xbc9c8fcd	-0.019111538
25	0xbec00d3d	-0.375101
26	0xbea85590	-0.3287778
27	0x3ddd1001	0.10794068
28	0x3eb8f5d5	0.36125055
29	0x3dfb5be0	0.12273383
30	0x3cf79adc	0.03022521
31	0x3e0f0075	0.13965018
32	0xbed3cdf1	-0.41368058
33	0xbf1f483f	-0.62219614
34	0x3e3385a1	0.17531444
35	0x3d9ce24f	0.076603524
36	0xbbc8d945	-0.006129416
37	0x3e666c94	0.22502357
38	0xbd778c27	-0.060436394
39	0x3d1bc9da	0.038034298
40	0x3e5fbb36	0.21848759
41	0x3c081ade	0.008307187
42	0xbdf9577d	-0.1217489
43	0x3d1784ed	0.036992002
44	0xbcf855c9	-0.030314343
45	0xbea2bf89	-0.31786755
46	0x3e157052	0.14593628
47	0x3d1cc6f0	0.03827566
48	0xbf338bcf	-0.70135206
49	0xbef8ba01	-0.4857941
50	0xbf2a0654	-0.66415906
51	0xbf198cf6	-0.59980714
52	0x3f09e544	0.53865457
53	0xbf0db038	-0.55347013
54	0xbf281842	-0.65662014
55	0xbf05b335	-0.52226573
56	0xbf14e54a	-0.5816237
57	0xbeef5b9a	-0.46749574
58	0xbf1a38ae	-0.60242736
59	0xbf16262c	-0.58651996
60	0xbf28d72e	-0.6595334
61	0xbf3afabb	-0.73038834
62	0xbf121bf2	-0.5707389
63	0xbf3d4feb	-0.7395007
64	0xbf26d714	-0.65171933
65	0xbf19004a	-0.59766066
66	0xbf252b2b	-0.64518994
67	0xbf38b0dc	-0.72144866
68	0xbef900d0	-0.48633432
69	0xbefd0b64	-0.49422753
70	0xbf3cb981	-0.73720556
71	0xbf031392	-0.51201737
72	0xbf317ce3	-0.69331187
73	0xbf155b51	-0.5834246
74	0xbf13d85b	-0.5775201
75	0xbf2c891c	-0.6739671
76	0xbf48d2cb	-0.78446645
77	0xbf2dd40a	-0.6790167
78	0xbf0f2773	-0.5591957
79	0xbf11487b	-0.5675122
80	0xbf079ff1	-0.52978426
81	0x3f1190e0	0.56861687
82	0xbf3293bb	-0.6975667
83	0xbefb74c1	-0.49112514
84	0xbf0d5703	-0.55210894
85	0xbef6e463	-0.4822112
86	0xbf2a5f3a	-0.66551554
87	0xbf1760eb	-0.5913226
88	0xbf2bcc85	-0.6710895
89	0xbf22a391	-0.6353083
90	0xbf2120bc	-0.62940574
91	0xbeefc74e	-0.46831745
92	0xbf341b23	-0.7035391
93	0xbf21ec65	-0.63251334
94	0xbf360f2d	-0.71116906
95	0xbf3904ff	-0.7227325
96	0x3efb8f4f	0.49132773
97	0x3f1dfbaa	0.61712134
98	0x3f18681a	0.59533846
99	0x3f04bcab	0.51850384
100	0xbf61f824	-0.8826926
101	0x3f4009f2	0.75015175
102	0x3f201dda	0.6254555
103	0x3f2575b8	0.6463275
104	0x3f1fb0a9	0.62378937
105	0xbf62f6d6	-0.8865789
106	0xbecd7774	-0.40130198
107	0xbedf3c6c	-0.43600786
108	0x3eb2f7bb	0.34954628
109	0x3f17b378	0.5925822
110	0x3f14460f	0.579194
111	0x3eb3f475	0.35147443
112	0x3ecc8e17	0.39952156
113	0x3f0001dc	0.5000284
114	0x3f2c1f18	0.67234945
115	0x3ead6ea8	0.33873487
116	0x3e9d4193	0.30714092
117	0x3eb7edf1	0.35923722
118	0x3efc1af0	0.49239302
119	0x3f158b17	0.5841536
120	0x3f0955f4	0.5364678
121	0x3e53de3c	0.20690244
122	0x3ec23883	0.3793374
123	0x3f1a05fd	0.6016539
124	0x3ef72cdc	0.48276412
125	0x3f0e5252	0.5559436
126	0x3f0e41ef	0.55569357
127	0x3f0edcb0	0.5580549
128	0xbef7edb4	-0.4842354
129	0x3f001801	0.5003663
130	0x3ec02240	0.3752613
131	0x3ede2326	0.4338619
132	0x3ef24f9d	0.47326365
133	0x3f19b7c8	0.6004605
134	0x3f055474	0.5208199
135	0x3ef7a499	0.48367766
136	0x3ee7c071	0.4526401
137	0x3ebe9390	0.37221956
138	0x3ed337fd	0.41253653
139	0x3eec6339	0.4616945
140	0x3ec33f33	0.38134155
141	0x3ed124ad	0.40848294
142	0x3f1b6589	0.60701805
143	0x3f0e1045	0.55493575
144	0xbf32a64d	-0.69785005
145	0xbef45278	-0.4771917
146	0xbf313931	-0.6922789
147	0xbf39d88c	-0.7259605
148	0x3f248aa3	0.6427404
149	0xbf136743	-0.5757944
150	0xbefec9af	-0.49763247
151	0xbf2c5264	-0.6731322
152	0xbf01455a	-0.5049645
153	0xbf0ccbab	-0.5499827
154	0xbeeb75f7	-0.45988438
155	0xbf12cfb9	-0.5734821
156	0xbef6fc15	-0.48239198
157	0xbf1df7f8	-0.61706495
158	0xbf227db2	-0.63473046
159	0xbef08e3a	-0.4698351
160	0xbf0a75a6	-0.5408577
161	0xbf0bba83	-0.5458147
162	0xbf020e37	-0.5080294
163	0xbf131916	-0.57460153
164	0xbf348a38	-0.70523405
165	0xbf1210b9	-0.57056767
166	0xbf0840a0	-0.5322361
167	0xbf3ea0b9	-0.74463993
168	0xbf108f4a	-0.5646864
169	0xbef392fe	-0.47573084
170	0xbf31820f	-0.6933908
171	0xbef65aa4	-0.48116028
172	0xbf1fb675	-0.6238778
173	0xbf0912cd	-0.5354431
174	0xbf392225	-0.72317725
175	0xbf1b4f2a	-0.6066767
176	0xbf09377f	-0.53600305
177	0x3f177625	0.5916465
178	0xbf0e2fd4	-0.5554173
179	0xbf343740	-0.70396805
180	0xbefd37be	-0.4945659
181	0xbf065f08	-0.52488756
182	0xbf299be4	-0.66253495
183	0xbf094e57	-0.5363516
184	0xbf24169c	-0.64097
185	0xbef14193	-0.47120342
186	0xbf1ffb69	-0.62492996
187	0xbef1750b	-0.4715961
188	0xbf271de1	-0.65279967
189	0xbf122ab6	-0.5709642
190	0xbf3964b0	-0.7241926
191	0xbf2b299b	-0.6686036
192	0xbf21e656	-0.6324209
193	0xbf0c9f10	-0.5493021
194	0xbf0a4932	-0.5401794
195	0xbf029eb6	-0.51023424
196	0xbf4f679c	-0.8101747
197	0x3eee8c6b	0.46591505
198	0xbf192acd	-0.59830934
199	0x3dc1a26c	0.09454808
200	0xbf2f2a05	-0.6842349
201	0x3f117fdb	0.56835717
202	0x3ded1188	0.115756094
203	0xbba6c0e5	-0.005088913
204	0xbf19205d	-0.5981501
205	0xbf2828c2	-0.6568719
206	0xbf3b9a88	-0.7328267
207	0xbf0cb410	-0.54962254
208	0xbf1db5bd	-0.61605436
209	0xbf134e02	-0.57540905
210	0xbf3dae0f	-0.7409372
211	0xbf2c2f24	-0.6725943
212	0xbefb6ec5	-0.49107948
213	0xbf3cefb9	-0.7380329
214	0xbf358e2e	-0.70920074
215	0xbf15c304	-0.58500695
216	0xbf1aea9d	-0.6051424
217	0xbdb339b5	-0.08751241
218	0x3ee94eb6	0.45567864
219	0xbf43689a	-0.76331484
220	0xbef3c77c	-0.47613132
221	0xbf3a0b31	-0.72673327
222	0xbf4c748a	-0.79865324
223	0xbf3c2c72	-0.7350532
224	0xbf23f82a	-0.64050543
225	0xbf0de5c2	-0.5542871
226	0xbf234891	-0.637826
227	0xbf3d08e0	-0.7384167
228	0xbf0c4e77	-0.5480723
229	0xbf274632	-0.65341485
230	0xbf3d42a7	-0.7392983
231	0xbf4d1a21	-0.80117995
232	0xbf17129f	-0.5901279
233	0xbf46a722	-0.77598774
234	0xbf3b09d3	-0.73061866
235	0xbf10917d	-0.56472
236	0xbf5ae437	-0.8550448
237	0xbf4244d0	-0.7588625
238	0xbf452731	-0.77012926
239	0xbf2f4dcf	-0.684781
240	0xbf1d7bb2	-0.6151687
241	0xbf12a0e0	-0.57276726
242	0xbf0ac010	-0.54199314
243	0x3efd7b03	0.49507913
244	0x3f2cba43	0.6747171
245	0x3ece1f36	0.40258187
246	0xbf2a4c00	-0.66522217
247	0xbf21989c	-0.6312349
248	0xbf3bd4fc	-0.73371863
249	0xbf1095ee	-0.56478775
250	0x3e83b89e	0.2572679
251	0xbf2f7867	-0.68543094
252	0xbf3e7d2f	-0.74409765
253	0xbf3f0952	-0.74623597
254	0xbf02b640	-0.5105934
255	0xbf3e9c9f	-0.74457735

layer1.bias f4 [96]
0	0x3e019c9c	0.12657398
1	0xbefc0e7d	-0.49229804
2	0x3ee6507c	0.4498328
3	0xbf28ecef	-0.6598653
4	0xbf253893	-0.6453945
5	0xbf127acd	-0.5721863
6	0xbf399b65	-0.7250274
7	0x3f261067	0.6486878
8	0xbf22813f	-0.63478464
9	0xbf026d8c	-0.50948405
10	0xbf47c7e0	-0.7803936
11	0xbf156d7f	-0.583702
12	0xbf239f93	-0.63915366
13	0xbf04bc90	-0.51850224
14	0xbf2d67d6	-0.67736566
15	0x3f841f68	1.0322084
16	0x3f0cacf0	0.5495138
17	0xbf30f6b3	-0.69126433
18	0x3e0beb37	0.13663946
19	0xbf718fdc	-0.94360137
20	0xbef93929	-0.48676422
21	0xbf1b4b5e	-0.60661876
22	0xbf1466f7	-0.5796961
23	0xbf2d1359	-0.6760765
24	0x3f5a84e9	0.85359055
25	0xbe525330	-0.20539546
26	0xbf36c3c7	-0.7139248
27	0xbf0e0b82	-0.5548631
28	0x3f2651d1	0.6496859
29	0x3f5d7175	0.86501247
30	0xbe378256	-0.17920813
31	0xbf354f0a	-0.7082373
32	0xbf1b6244	-0.60696816
33	0xbf42e229	-0.76126343
34	0xbdbc4a36	-0.09193842
35	0x3f3ab723	0.72935694
36	0xbf304de7	-0.6886887
37	0xbe9a6f12	-0.30162865
38	0xbf1c0ded	-0.6095875
39	0xbf0e1ce1	-0.55512816
40	0x3f7d11ef	0.9885549
41	0xbf1075fe	-0.5643004
42	0x3df09d13	0.117487095
43	0xbf2642fa	-0.6494595
44	0x3f582730	0.84434795
45	0x3f2a9f2e	0.6664914
46	0xbf3ebdac	-0.74508166
47	0xbf3d7829	-0.74011475
48	0xbf38b65e	-0.7215327
49	0x3f83138b	1.0240339
50	0xbf25cdaf	-0.64766973
51	0xbf1da449	-0.61578804
52	0x3f26319d	0.64919454
53	0xbf3e6c73	-0.7438423
54	0xbf2db621	-0.6785603
55	0xbf2f8da3	-0.68575495
56	0x3f5ed405	0.87042266
57	0x3c5eb005	0.013591771
58	0xbf2d1adb	-0.67619103
59	0xbf0fc46c	-0.5615909
60	0x3f29e1f9	0.6636043
61	0xbf2b3c93	-0.66889304
62	0xbf367fa3	-0.7128851
63	0xbf260c85	-0.64862853
64	0xbf431750	-0.7620745
65	0x3ea5ff07	0.32421133
66	0x3f293df3	0.6611015
67	0xbf4aefb5	-0.79272014
68	0x3f6612a2	0.8987218
69	0x3f40e6aa	0.75351965
70	0x3ebe89d8	0.3721454
71	0xbeec5e7e	-0.46165842
72	0x3f680795	0.9063657
73	0xbf385e9a	-0.7201935
74	0x3ace87a8	0.0015756981
75	0x3f2e64a8	0.6812234
76	0xbf339d03	-0.70161456
77	0xbf2e5e9a	-0.681131
78	0xbed2433b	-0.41066918
79	0xbf18a266	-0.596228
80	0xbf3f2be5	-0.7467635
81	0xbf240272	-0.6406623
82	0xbf2c52e2	-0.6731397
83	0xbf411a18	-0.7543044
84	0x3f5bb7a1	0.8582707
85	0x3f3b2466	0.73102415
86	0xbf291d8c	-0.6606071
87	0xbf2ad63e	-0.6673316
88	0xbf255a1e	-0.6459063
89	0xbf2f3b3e	-0.6844977
90	0xbf0824d9	-0.53181225
91	0xbf39fd49	-0.7265211
92	0xbf2977f5	-0.66198665
93	0xbf199a36	-0.6000093
94	0xbf312b65	-0.6920684
95	0xbf28fb4b	-0.6600844

layer_norm1.weight f4 [96]
0	0x3e9dbb56	0.30806988
1	0x3ec7c691	0.39018682
2	0x3fb30fcb	1.3989195
3	0x3ecc84be	0.39945024
4	0x3f800000	1.0
5	0x3fcca0ec	1.598661
6	0x3f800000	1.0
7	0x3fce5157	1.6118573
8	0x3ecc84d3	0.39945087
9	0x3f800000	1.0
10	0x3f800000	1.0
11	0x3ecc8995	0.39948717
12	0x3f133f2d	0.57518274
13	0x3ecc8558	0.39945483
14	0x3f800000	1.0
15	0x40036c6a	2.053492
16	0x3f794c6b	0.9738223
17	0x3f8ad830	1.0847225
18	0x3f31731e	0.6931628
19	0x3e360a1d	0.17777295
20	0x3ecc865e	0.39946264
21	0x3f800000	1.0
22	0x3f800000	1.0
23	0x3f800000	1.0
24	0x3f8410b5	1.0317599
25	0x3f37e425	0.71832496
26	0x3ecc854c	0.39945447
27	0x3f800000	1.0
28	0x3fe02135	1.7510134
29	0x3f8ed0cc	1.115747
30	0x3f1d922f	0.61551183
31	0x3f800000	1.0
32	0x3f800000	1.0
33	0x3f800000	1.0
34	0x3ec45174	0.38343394
35	0x3ff571cb	1.9175352
36	0x3f800000	1.0
37	0x3ec41af5	0.38301817
38	0x3e91a36f	0.28445002
39	0x3f800000	1.0
40	0x3ff3e829	1.9055225
41	0x3ec7c699	0.39018705
42	0x3f58a299	0.84623104
43	0x3f800000	1.0
44	0x3fcc49b0	1.5959988
45	0x3fb9f812	1.452883
46	0x3f800000	1.0
47	0x3ecc8743	0.39946947
48	0x3ec6082b	0.38678107
49	0x40038bef	2.0554159
50	0x3f800000	1.0
51	0x3f800000	1.0
52	0x3fe83799	1.8141967
53	0x3ecc9ae9	0.39961937
54	0x3ec0bb62	0.37642962
55	0x3ecd18d9	0.4005802
56	0x3ffe3e49	1.9862758
57	0x3f5cc16a	0.86232626
58	0x3ecc84fd	0.39945212
59	0x3ecc8f4c	0.39953077
60	0x3fae983d	1.364021
61	0x3f800000	1.0
62	0x3f800000	1.0
63	0x3ecc92f9	0.3995588
64	0x3f65c713	0.8975689
65	0x3f5a9cd3	0.85395545
66	0x3fcd0448	1.6016932
67	0x3ce813e1	0.028329792
68	0x3ff5ca8a	1.9202435
69	0x3fcab94e	1.58378
70	0x3f75841b	0.959047
71	0x3ecc8540	0.39945412
72	0x3fe4ffab	1.7890524
73	0x3ecdc756	0.40191144
74	0x3f2f4e0b	0.6847846
75	0x3fea744d	1.8316742
76	0x3ecc862a	0.3994611
77	0x3f7027d7	0.9381079
78	0x3f0f31ed	0.55935556
79	0x3f800000	1.0
80	0x3eae65e6	0.34062117
81	0x3ffba343	1.9659199
82	0x3ecc874a	0.39946967
83	0x3f800000	1.0
84	0x3fe48a30	1.7854671
85	0x3fc972b5	1.5738131
86	0x3f800000	1.0
87	0x3f2f189a	0.68396914
88	0x3ecc84be	0.39945024
89	0x3ed5ceb6	0.4175927
90	0x3f800000	1.0
91	0x3f800000	1.0
92	0x3f03dbf0	0.51507473
93	0x3ecc87b6	0.3994729
94	0x3ecc856f	0.39945552
95	0x3ecc878e	0.3994717

layer_norm1.bias f4 [96]
0	0xbe484c3a	-0.19560328
1	0xbf292962	-0.6607877
2	0x3e4a6250	0.19764066
3	0xbf19bda4	-0.60054994
4	0x00000000	0.0
5	0xbf19b547	-0.6004223
6	0x00000000	0.0
7	0x3f25ac68	0.64716196
8	0xbf19bd98	-0.6005492
9	0x00000000	0.0
10	0x00000000	0.0
11	0xbf19bd5c	-0.60054564
12	0xbcb17170	-0.021660537
13	0xbf19bd8d	-0.60054857
14	0x00000000	0.0
15	0x3f8670b5	1.0503145
16	0x3eb98ddd	0.36241046
17	0x3e739bbd	0.23789878
18	0xbe89779b	-0.26849064
19	0xbf7de582	-0.99178326
20	0xbf19bd77	-0.60054725
21	0x00000000	0.0
22	0x00000000	0.0
23	0x00000000	0.0
24	0x3e6103f8	0.2197417
25	0x3d7cfd86	0.061765216
26	0xbf19bd74	-0.6005471
27	0x00000000	0.0
28	0x3f54aaec	0.83073306
29	0x3e904d8f	0.28184173
30	0xbda7a10f	-0.08185016
31	0x00000000	0.0
32	0x00000000	0.0
33	0x00000000	0.0
34	0xbe9b3f40	-0.30321693
35	0x3f440ff4	0.7658684
36	0x00000000	0.0
37	0xbee96a11	-0.45588735
38	0xbf2c0a13	-0.6720287
39	0x00000000	0.0
40	0x3f63be6f	0.88962454
41	0xbf29bcf3	-0.6630394
42	0x3cfb9c74	0.030714251
43	0x00000000	0.0
44	0x3f2a2227	0.6645836
45	0x3f149ebc	0.5805471
46	0x00000000	0.0
47	0xbf19bcc7	-0.60053676
48	0xbf299cf8	-0.6625514
49	0x3f80f54c	1.0074859
50	0x00000000	0.0
51	0x00000000	0.0
52	0x3f302798	0.68810415
53	0xbf19bc95	-0.6005338
54	0xbf20dd18	-0.6283736
55	0xbf19bc15	-0.60052615
56	0x3f767a34	0.9628022
57	0xbd1bffeb	-0.03808586
58	0xbf19bd8c	-0.6005485
59	0xbf19bc29	-0.60052735
60	0x3f03011b	0.5117356
61	0x00000000	0.0
62	0x00000000	0.0
63	0xbf19bc7c	-0.6005323
64	0xbe9cc8dc	-0.30621994
65	0xbc5e84c7	-0.013581461
66	0x3f2fd634	0.68686223
67	0xbf133fa5	-0.5751899
68	0x3f6e71af	0.9314222
69	0x3f21d928	0.6322198
70	0x3e4692b5	0.19391902
71	0xbf19bd84	-0.600548
72	0x3f581802	0.84411633
73	0xbf19b356	-0.6003927
74	0x3d7c24c4	0.0615585
75	0x3f4391cd	0.7639435
76	0xbf19bd99	-0.6005493
77	0x3d6985c3	0.05701233
78	0xbdd17bfd	-0.10228727
79	0x00000000	0.0
80	0xbf1cf0ec	-0.6130512
81	0x3ed650e3	0.41858587
82	0xbf19bd12	-0.60054123
83	0x00000000	0.0
84	0x3f54029f	0.828165
85	0x3f17ff46	0.5937389
86	0x00000000	0.0
87	0xbeb0b20a	-0.34510833
88	0xbf19bda9	-0.60055023
89	0xbf05bcf5	-0.5224145
90	0x00000000	0.0
91	0x00000000	0.0
92	0xbf0e062f	-0.55478185
93	0xbf19bbcd	-0.60052186
94	0xbf19bcc6	-0.6005367
95	0xbf19bd33	-0.6005432

layer2.weight f4 [48, 96]
0	0xbf3dd3f9	-0.7415157
1	0xbe146636	-0.14492115
2	0xbeec02a6	-0.4609577
3	0xbf06775b	-0.5252587
4	0x3d5d4bd4	0.054027393
5	0xbf2e53bb	-0.6809651
6	0x3d8bdd66	0.06829338
7	0xbe9e6273	-0.30934486
8	0x3f2a501b	0.6652848
9	0xbd1fc486	-0.03900578
10	0x3bc727fd	0.006077765
11	0xbf290acc	-0.660321
12	0x3ee46482	0.4460793
13	0xbf131134	-0.57448125
14	0x3c49cd94	0.01231708
15	0xbda67804	-0.0812836
16	0xbf155f34	-0.58348393
17	0x3f0fa92f	0.5611753
18	0xbf2ec643	-0.68271273
19	0xbec618f1	-0.38690904
20	0x3f05f009	0.5231939
21	0xbda1b99f	-0.078967325
22	0x3d4daf03	0.050215732
23	0xbcf6b796	-0.030116837
24	0xbec1eba6	-0.37875098
25	0x3e35f13c	0.17767805
26	0xbf0d2ea4	-0.5514929
27	0x3dc0ab08	0.094076216
28	0xbdc4b557	-0.096049
29	0xbed8e049	-0.42358616
30	0xbd8080e2	-0.062745824
31	0xbdcef2f2	-0.10104932
32	0xbd37d688	-0.044882327
33	0xbdc57280	-0.0964098
34	0xbe440cb2	-0.19145468
35	0xbde8cb4a	-0.11366899
36	0xbc5c8d26	-0.013461387
37	0x3d0ee1f4	0.034883454
38	0xbdaa221f	-0.08307289
39	0x3da0c028	0.07849151
40	0xbdfaeab6	-0.12251799
41	0xbeece921	-0.46271613
42	0xbeebf93a	-0.46088582
43	0x3db300ef	0.087404124
44	0xbe956364	-0.29177392
45	0x3da02ddd	0.07821248
46	0xbc0eb292	-0.008709567
47	0xbf048bb0	-0.51775646
48	0xbec0f1c9	-0.37684467
49	0xbe981a37	-0.297075
50	0x3c83c935	0.016087154
51	0xbd21b4dd	-0.039479125
52	0xbd92994d	-0.07158146
53	0x3f12fe0c	0.57418895
54	0xbf00e84a	-0.50354445
55	0xbf0d3c62	-0.5517026
56	0xbe5dbcfd	-0.21654125
57	0xbee5a49a	-0.44852144
58	0xbf0fb864	-0.5614073
59	0xbf0548e0	-0.52064323
60	0xbdf00379	-0.11719412
61	0x3d83a2d6	0.06427543
62	0x3dbd3ec0	0.09240484
63	0xbf2a27d5	-0.6646703
64	0xbf351de4	-0.70748734
65	0xbed1f2c5	-0.4100553
66	0xbe888992	-0.26667458
67	0x3f039c28	0.5141015
68	0xbea61752	-0.32439667
69	0xbe19bba6	-0.15012988
70	0xbf079944	-0.5296824
71	0xbf30e765	-0.6910308
72	0xbe83662b	-0.25663885
73	0xbf128c63	-0.57245463
74	0xbe2da6cc	-0.16958159
75	0xbe9d415d	-0.3071393
76	0x3f2a610d	0.6655434
77	0x3f38e7a2	0.72228444
78	0xbf0df97f	-0.55458826
79	0xbd195575	-0.037435014
80	0xbf27b817	-0.65515274
81	0xbf1a8445	-0.6035808
82	0xbeff9809	-0.4992068
83	0xbcfd5bea	-0.030927617
84	0xbe0df883	-0.13864331
85	0xbe044bc7	-0.12919532
86	0xbdbf56d8	-0.09342736
87	0xbe9951d9	-0.29945257
88	0x3f088210	0.5332346
89	0x3eb13d33	0.34617004
90	0xbd0d22a7	-0.034456875
91	0x3d213fa2	0.039367326
92	0x3f183f7d	0.59471875
93	0xbf186b7d	-0.59539014
94	0xbf2b6a74	-0.6695931
95	0xbf302672	-0.6880866
96	0x3e611949	0.21982302
97	0xbf1130aa	-0.5671488
98	0x3f4b4902	0.79408276
99	0x3f227d56	0.634725
100	0x3cfbbd84	0.030730017
101	0xbf0b8330	-0.5449705
102	0xbc8c050b	-0.017092248
103	0x3e885012	0.2662359
104	0xbf0e9cfe	-0.557083
105	0xbd7680a3	-0.06018127
106	0x3d21be34	0.039488032
107	0xbf18f6fb	-0.5975186
108	0x3e4a8202	0.19776157
109	0xbf11e041	-0.5698281
110	0xbb844b0e	-0.0040372675
111	0x3d22a8ae	0.039711647
112	0x3eade300	0.3396225
113	0xbe2337c7	-0.15939246
114	0x3edc6508	0.4304583
115	0x3f27c394	0.65532804
116	0xbf04f75c	-0.5193994
117	0x3cf204a1	0.029543223
118	0xbd383927	-0.04497638
119	0x3cd67bb7	0.026182039
120	0xbeb457bb	-0.35223183
121	0xbee221d8	-0.44166446
122	0x3f10aacf	0.56510633
123	0xbd45bc09	-0.048275027
124	0x3ca6f5dd	0.020380909
125	0x3f765e0c	0.96237254
126	0xbcee2f4a	-0.029075284
127	0x3d958bce	0.07302056
128	0x3dc2a0eb	0.09503349
129	0xbdc34de4	-0.09536341
130	0xbf1191d5	-0.5686315
131	0xbc9d2346	-0.019181859
132	0xbd19280a	-0.0373917
133	0xbdc35f00	-0.09539604
134	0x3f0e441d	0.5557268
135	0x3d2c4cce	0.042065434
136	0xbbe12e87	-0.0068720016
137	0x3f257c6c	0.6464298
138	0x3e9fccb2	0.31210858
139	0xbdafc4e4	-0.08582476
140	0xbe36f38e	-0.17866346
141	0x3cd26e53	0.025687372
142	0xbda854cf	-0.08219301
143	0x3f128c61	0.5724545
144	0x3f1c6739	0.61095005
145	0x3f3461f1	0.70461947
146	0xbdcfef96	-0.10153119
147	0xbd9bd96b	-0.076098286
148	0x3d51c956	0.0512174
149	0x3f299f37	0.6625857
150	0x3f325216	0.69656503
151	0x3f079e65	0.52976066
152	0x3ea01ec5	0.31273475
153	0x3f2282be	0.63480747
154	0x3f128cd8	0.5724616
155	0x3f14699e	0.5797366
156	0xbdba03a8	-0.090827286
157	0x3c217d85	0.009856586
158	0x3cee4ed1	0.029090317
159	0x3f26b24f	0.6511583
160	0x3f290248	0.66019106
161	0x3f0902d7	0.5351996
162	0x3f4ec6f4	0.8077233
163	0x3f23d4d6	0.63996637
164	0xbcb7120b	-0.02234747
165	0xbd3cf6f7	-0.04613396
166	0x3ebdd94f	0.37079856
167	0x3f09b61c	0.537935
168	0x3f33e8a8	0.7027688
169	0x3f313323	0.69218653
170	0xbdc943cc	-0.09827384
171	0x3f4332b7	0.7624926
172	0xbf30086c	-0.6876285
173	0xbe013340	-0.12617207
174	0x3eff2a88	0.49837136
175	0x3bdbbfcd	0.006706214
176	0x3f249165	0.64284354
177	0xbef89250	-0.48549128
178	0x3f0d1868	0.55115366
179	0xbd973548	-0.073832095
180	0x3e619d9b	0.22032778
181	0x3f3ce248	0.7378278
182	0xbd8736d8	-0.066022575
183	0xbe3e5459	-0.18586864
184	0xbf0e3602	-0.5555116
185	0xbf257997	-0.64638656
186	0x3c2d8daa	0.010592857
187	0x3cfe6ffe	0.031059261
188	0x3f07b690	0.53012943
189	0x3f12d4ed	0.5735615
190	0x3f0ec6eb	0.55772275
191	0x3f09aff8	0.5378413
192	0xbedaf45e	-0.42764562
193	0xbf289117	-0.6584639
194	0xbf4d8697	-0.8028349
195	0xbf32be1f	-0.6982135
196	0xbdb7a45b	-0.08966895
197	0xbf24cf0f	-0.64378446
198	0x3d3338a4	0.04375519
199	0xbf87d5fe	-1.061218
200	0xbf2d3a2c	-0.6766689
201	0x3c33905a	0.010959709
202	0xbd895144	-0.06704953
203	0xbf0d0584	-0.5508654
204	0xbf6899c7	-0.90859646
205	0xbf2e93ee	-0.6819447
206	0xbd72754f	-0.059193905
207	0xbf9eae66	-1.2396972
208	0xbf4f9b78	-0.810966
209	0xbf737c19	-0.95111233
210	0xbeef2886	-0.46710604
211	0xbf194d64	-0.59883714
212	0xbf31a23f	-0.6938819
213	0xbd6021df	-0.054719802
214	0x3d20b955	0.039239246
215	0x3cf62bea	0.030050237
216	0xbf29e641	-0.66366965
217	0xbf3cdffb	-0.7377927
218	0xbf14d34b	-0.5813491
219	0xbd7ce80c	-0.061744735
220	0xbf9bbf77	-1.2167805
221	0xbf447264	-0.76737046
222	0xbf5ec6e0	-0.8702221
223	0x3c46cac1	0.012133301
224	0x3d357b83	0.044307243
225	0x3dc2c99b	0.095111094
226	0xbf30b444	-0.69025064
227	0xbf960cbf	-1.172264
228	0xbd869ef2	-0.06573285
229	0xbf22f242	-0.63650906
230	0xbd42c173	-0.04754777
231	0xbd3c9a30	-0.046045482
232	0xbf9b0d56	-1.2113445
233	0xbf2d21cf	-0.6762971
234	0xbf376c65	-0.7164977
235	0x3d88d8df	0.0668199
236	0xbf86f86d	-1.0544564
237	0xbf82d1af	-1.022024
238	0x3cb54c2b	0.022131046
239	0x3f01c5f1	0.5069266
240	0xbf08d188	-0.5344472
241	0xbf9e734d	-1.2378937
242	0xbd89f47d	-0.067360856
243	0x3d613f43	0.05499197
244	0xbf9ee5df	-1.2413901
245	0x3f2f4978	0.6847148
246	0xbf3210eb	-0.69557065
247	0xbf0b5246	-0.54422414
248	0xbf80dd2b	-1.0067495
249	0xbf22688f	-0.63440794
250	0xbf1e15db	-0.617521
251	0xbf1e7af7	-0.6190638
252	0xbf8d0dff	-1.1019896
253	0x3d88056b	0.066416584
254	0xbc8e4bde	-0.01737016
255	0x3f213a59	0.62979656

layer2.bias f4 [48]
0	0xbe962e2f	-0.2933211
1	0x3f1d7361	0.6150418
2	0xbf69d5f0	-0.9134207
3	0x3f1ffb30	0.62492657
4	0xbf0ec203	-0.5576479
5	0x3eabb12b	0.33533606
6	0xbf995488	-1.1978922
7	0xbf9e5c24	-1.2371869
8	0x3f17bd5b	0.5927331
9	0xbf63a388	-0.88921404
10	0xbf179da5	-0.5922492
11	0xbf8c788b	-1.0974287
12	0xbf16f7cf	-0.58971876
13	0xbf5c1b6f	-0.8597936
14	0x3f16dd70	0.58931637
15	0x3efbe1bd	0.49195662
16	0xbed5abd9	-0.41732672
17	0xbf7a6dbb	-0.97823685
18	0xbf918df9	-1.1371452
19	0x3f329bb4	0.69768834
20	0xbf8e0f83	-1.1098484
21	0xbf1ffa8f	-0.624917
22	0xbf97e4f1	-1.1866742
23	0xbf17badb	-0.59269494
24	0xbf81de26	-1.0145919
25	0x3f9180d0	1.1367435
26	0x3e9e94ea	0.30972987
27	0x3f019105	0.5061191
28	0xbf0a261c	-0.539644
29	0x3f23a6eb	0.6392657
30	0xbf1c6f8e	-0.6110772
31	0x3f29f4d4	0.66389203
32	0x3f27df4b	0.65575093
33	0xbf2144e5	-0.6299575
34	0xbeeda6d2	-0.46416336
35	0xbf69f832	-0.9139434
36	0xbf23195f	-0.6371059
37	0xbf1967da	-0.5992409
38	0x3e031256	0.12799963
39	0x3ecace70	0.39610624
40	0xbf192148	-0.5981641
41	0x3f91d085	1.139176
42	0x3f96c2a2	1.1778147
43	0xbf5b0518	-0.8555465
44	0x3f003a84	0.5008929
45	0xbf1f742e	-0.6228665
46	0xbf3d675d	-0.73985845
47	0x3f1bd452	0.6087085

layer_norm2.weight f4 [48]
0	0x3f222aae	0.63346374
1	0x3e716c8c	0.23576564
2	0x3f800000	1.0
3	0x3eb8fd4e	0.36130756
4	0x3ecc84c0	0.3994503
5	0x3f1ee988	0.6207509
6	0x3f800000	1.0
7	0x3f800000	1.0
8	0x3e824272	0.2544132
9	0x3ecc89b6	0.39948815
10	0x3f004058	0.5009818
11	0x3f800000	1.0
12	0x3f01770c	0.50572276
13	0x3f800000	1.0
14	0x3ea1c0ff	0.31592557
15	0x3e4ae25d	0.19812913
16	0x3e8096ca	0.25115043
17	0x3ecc94ec	0.39957368
18	0x3f800000	1.0
19	0x3e2ae959	0.16690578
20	0x3f800000	1.0
21	0x3ecc84ff	0.39945218
22	0x3f800000	1.0
23	0x3ecc84be	0.39945024
24	0x3f800000	1.0
25	0xbdad99b6	-0.08476584
26	0x3e157722	0.14596227
27	0x3eb811f1	0.35951188
28	0x3ecc84c0	0.3994503
29	0x3e5415f9	0.20711507
30	0x3ecc8512	0.39945275
31	0x3e9d1af1	0.30684617
32	0x3de8510c	0.113435835
33	0x3ecc84be	0.39945024
34	0x3edebd79	0.4350393
35	0x3f800000	1.0
36	0x3ecc84eb	0.39945158
37	0x3ecc8532	0.3994537
38	0x3f1b16cc	0.6058166
39	0x3f22bb33	0.63566893
40	0x3ecc84c9	0.39945057
41	0xbeb6574e	-0.35613483
42	0xbd28e6d0	-0.041235745
43	0x3ecc8ba7	0.39950296
44	0x3e8e2254	0.27760565
45	0x3ecc84b7	0.39945003
46	0x3ecc8654	0.39946234
47	0x3e03230c	0.12806338

layer_norm2.bias f4 [48]
0	0xbf28ba7b	-0.65909547
1	0xbea43fa9	-0.3207982
2	0x00000000	0.0
3	0xbf1c6f32	-0.6110717
4	0xbf19bd9f	-0.60054964
5	0xbee327f1	-0.4436641
6	0x00000000	0.0
7	0x00000000	0.0
8	0xbf1727eb	-0.59045285
9	0xbf19bcb5	-0.6005357
10	0xbf0c731c	-0.5486314
11	0x00000000	0.0
12	0xbf054afe	-0.52067554
13	0x00000000	0.0
14	0xbf005c75	-0.5014108
15	0xbf3ca662	-0.7369138
16	0xbf432f27	-0.76243824
17	0xbf19bcff	-0.6005401
18	0x00000000	0.0
19	0xbf4b1096	-0.79322183
20	0x00000000	0.0
21	0xbf19bd9b	-0.6005494
22	0x00000000	0.0
23	0xbf19bda0	-0.6005497
24	0x00000000	0.0
25	0xbf8578bd	-1.0427471
26	0xbf69aac0	-0.9127617
27	0xbec91266	-0.3927185
28	0xbf19bd8e	-0.6005486
29	0xbf2c38f6	-0.67274415
30	0xbf19bd9d	-0.6005495
31	0xbf1b1e06	-0.6059269
32	0xbf634efe	-0.8879241
33	0xbf19bda0	-0.6005497
34	0xbf10c208	-0.5654607
35	0x00000000	0.0
36	0xbf19bd8b	-0.60054845
37	0xbf19bd9b	-0.6005494
38	0xbf099357	-0.5374045
39	0xbf08b79d	-0.5340517
40	0xbf19bd9b	-0.6005494
41	0xbf8cb09f	-1.09914
42	0xbf7af606	-0.9803165
43	0xbf19bd77	-0.60054725
44	0xbf043c81	-0.5165482
45	0xbf19bd9b	-0.6005494
46	0xbf19bd13	-0.6005413
47	0xbf4ab089	-0.7917562

output_layer.weight f4 [1, 48]
0	0xbea57962	-0.3231917
1	0xbea21844	-0.31659138
2	0xbcfdbf7b	-0.030975094
3	0x3c94ec11	0.018178971
4	0xbf016421	-0.5054341
5	0x3d372a69	0.04471818
6	0x3c8a6e1f	0.016898213
7	0x3e0e55fd	0.1389999
8	0xbd946f49	-0.072477885
9	0x3f0cd3fd	0.5501097
10	0xbee65424	-0.4498607
11	0xbdab57a3	-0.08366325
12	0xbef50d3d	-0.47861663
13	0x3d87d004	0.06631473
14	0x3d0d05c2	0.03442932
15	0x3cd25b1d	0.025678212
16	0xbed44f01	-0.41466525
17	0xbf180555	-0.59383136
18	0xbe06627e	-0.1312351
19	0x3c201285	0.00977004
20	0x3b51ec0d	0.0032031566
21	0xbf0841a2	-0.5322515
22	0x3e113ed7	0.14184128
23	0xbefd2ee2	-0.4944983
24	0xbdb4de44	-0.08831456
25	0xbd8ad0fc	-0.06778142
26	0xbdae7eda	-0.08520289
27	0xba839805	-0.0010039812
28	0xbf0daea4	-0.55344605
29	0xbd7bd79d	-0.06148492
30	0xbf04b0b3	-0.5183212
31	0xbd533818	-0.051567167
32	0xbe9c800e	-0.30566448
33	0xbefdd33d	-0.49575225
34	0x3ee45e16	0.44603032
35	0x3ded43bf	0.11585187
36	0xbf0e0804	-0.5548098
37	0xbf053c1a	-0.5204483
38	0xbc7a26bc	-0.015268024
39	0x3d0043bd	0.0313146
40	0xbf0737b0	-0.5281935
41	0xbe1870f9	-0.14886846
42	0xbd65b10e	-0.056077056
43	0x3f06594b	0.5248
44	0xbd50b793	-0.05095632
45	0xbf078a94	-0.5294583
46	0xbeef1e09	-0.46702603
47	0xbbcb8c50	-0.006211795
