best_nn_sgd.pth (torch, 42608 bytes, 9 tensors)

layer1.weight f4 [96, 48]
-0.032323897 -0.121541165 0.08916047 0.10606011 -0.090301745 0.13347274 0.10572656 -0.06139212
-0.094654575 -0.06446912 -0.095846586 0.13867854 0.027675616 -0.10837015 0.09930943 -0.011647155
0.09871892 0.1371792 -0.039773062 0.10124854 -0.04823162 -0.07045483 0.07282949 0.07751372
-0.1227058 0.10182476 0.016496526 -0.09722928 -0.1162702 -0.14167298 -0.04953463 -0.026351597
0.0049237376 0.003683158 0.047155157 -0.05810644 -0.08300122 0.038126346 -0.038495183 0.09024704
0.06445942 0.100415796 -0.06502419 9.365068e-05 0.04506344 -0.07178205 0.11979882 -0.04148559
0.10771326 0.084381476 -0.1338593 0.09784814 0.004399797 0.13809958 0.03159868 0.050926168
-0.10281392 -0.01068807 0.07901311 -0.13740334 -0.08722169 -0.096381165 -0.02417998 -0.12608865
-0.06872296 -0.10571418 0.10325162 -0.09461 0.06729156 0.018677702 -0.11255214 -0.041903593
0.012770381 0.07257429 -0.019639257 0.10134435 0.040624663 0.05294425 -0.07035895 0.060058944
-0.08108806 0.07816784 0.046794057 0.023684232 0.08075403 0.033817742 -0.0706553 -0.0959575
-0.15734555 0.1089853 0.052926295 0.017205503 -0.080334 0.042299576 0.061902206 -0.102683626
-0.039277066 0.05261473 -0.027836652 -0.07068977 -0.04526128 0.029065613 -0.1276665 -0.006794128
-0.11481796 -0.0014446793 -0.11901174 0.10141312 0.124562666 0.08445359 0.13554396 0.13088205
-0.11587724 -0.061102934 0.010325318 0.004495851 0.0895865 -0.11447351 -0.054103795 0.13104108
0.13435443 -0.08390142 -0.021026904 0.03491728 0.101303466 0.044536136 -0.13540916 -0.023734715
0.021511693 0.06654419 0.11461154 0.15298934 0.087973684 -0.061428085 -0.05042785 0.13377705
-0.104391575 0.14462262 -0.13320385 0.08958063 -0.13148993 -0.06540615 0.055545524 -0.10942995
0.06860804 0.10948678 0.10589208 -0.06746557 0.10974967 0.13360181 -0.12127099 0.036622364
-0.13731565 0.046016674 -0.06379064 -0.10113616 0.14447042 0.018159177 -0.058549497 -0.12562491
-0.08108006 -0.12055488 0.015830236 -0.1180411 0.07841053 0.053052932 -0.134807 -0.0017864758
0.057160903 0.010284789 0.11855212 0.11754709 -0.083383776 -0.06548199 -0.14020137 0.06779385
0.07530852 -0.13012126 0.082158685 0.039596442 -0.036728725 0.093834884 0.04701172 -0.02569684
-0.13200225 -0.008912703 -0.024519036 -0.024953049 -0.08536071 0.1209028 -0.14023377 -0.033280294
-0.16711783 -0.1294973 -0.054485753 -0.062790476 -0.10711597 -0.1326538 0.111102805 -0.12743476
0.12882891 0.0006272689 0.061142795 -0.0011615639 -0.25138515 0.03322781 -0.06968706 -0.008362983
-0.16471209 -0.0910828 0.13486893 -0.06377158 -0.09583474 0.08007339 -0.095349215 -0.022335228
0.007997312 -0.08048759 -0.11315823 -0.1162259 0.007606534 0.08353537 0.08499287 0.09602949
0.011716774 0.1218921 -0.13351363 -0.17633231 -0.2511926 0.122975245 -0.1078951 0.1340352
-0.08140564 0.09424401 -0.10910577 0.0019643633 0.00796665 -0.008804532 0.034179986 -0.11131838
-0.15199451 0.010414889 0.016179973 0.10436416 -0.013449347 0.049998965 0.11344652 0.055849317
-0.12869008 0.03420863 -0.073753655 -0.112319544 0.06322481 0.034258667 0.10430421 -0.018458322
00000000: 1066 04bd 93ea f8bd c499 b63d 0b36 d93d
00000010: 1ff0 b8bd 14ad 083e 2b87 d83d 4e76 7bbd
00000020: 42da c1bd 6308 84bd 374b c4bd bf01 0e3e
00000030: f9b7 e23c 2bf1 ddbd be62 cb3d b5d3 3ebc
00000040: 252d ca3d b478 0c3e 14e9 22bd 655b cf3d
00000050: 858e 45bd 9f4a 90bd a127 953d 83bf 9e3d
00000060: 2e4d fbbd 8089 d03d b923 873c 2520 c7bd
00000070: 121f eebd b912 11be d3e4 4abd 4edf d7bc
00000080: 4e57 a13b 2361 713b c425 413d 0501 6ebd
00000090: 8bfc a9bd 5f2a 1c3d 20ad 1dbd 71d3 b83d
000000a0: 4d03 843d cca6 cd3d 672b 85bd 5366 c438
000000b0: 7194 383d 7802 93bd 1559 f53d cbec 29bd
000000c0: c598 dc3d 32d0 ac3d 6a12 09be 9b64 c83d
000000d0: 2c2c 903b fa69 0d3e 9e6d 013d f597 503d
000000e0: 1b90 d2bd 041d 2fbc a0d1 a13d 76b3 0cbe
000000f0: 49a1 b2bd 7d63 c5bd 1815 c6bc 621d 01be
00000100: a0be 8cbd ad80 d8bd 9675 d33d e3c2 c1bd
00000110: 28d0 893d fb01 993c bd81 e6bd 1aa3 2bbd
00000120: dc3a 513c d4a1 943d 82e2 a0bc a08d cf3d
00000130: 0c66 263d 12dc 583d 5a18 90bd 5e00 763d
00000140: 7f11 a6bd 7616 a03d 20ab 3f3d 6f05 c23c
00000150: 5e62 a53d 7984 0a3d bab3 90bd 5e85 c4bd
00000160: 311f 21be af33 df3d 3ec9 583d 8ef2 8c3c
00000170: 2786 a4bd 5242 2d3d 2b8d 7d3d cb4b d2bd
00000180: fde0 20bd 8b82 573d b109 e4bc ccc5 90bd
00000190: e463 39bd 021b ee3c 02bb 02be 47a1 debb
000001a0: ae25 ebbd 655b bdba 6dbc f3bd afb1 cf3d
000001b0: b61a ff3d 01f6 ac3d 09cc 0a3e f205 063e
000001c0: 0c51 edbd 1247 7abd 862b 293c ef51 933b
000001d0: 2079 b73d 1671 eabd f19b 5dbd a22f 063e
000001e0: 3594 093e 82d4 abbd 9d40 acbc 6c05 0f3d
000001f0: 3178 cf3d 866b 363d b3a8 0abe 4e6f c2bc
00000200: 4a39 b03c 5248 883d 75b9 ea3d 3da9 1c3e
00000210: 8c2b b43d 049c 7bbd 6f8d 4ebd dafc 083e
00000220: 40cb d5bd f417 143e 9766 08be 0d76 b73d
00000230: 4ca5 06be a9f3 85bd b483 633d cf1c e0bd
00000240: 5f82 8c3d 9b3a e03d f2dd d83d 642b 8abd
00000250: 6fc4 e03d eace 083e ed5c f8bd 5501 163d
00000260: 799c 0cbe fb7b 3c3d aba4 82bd 7a20 cfbd
00000270: 0ef0 133e 8ec2 943c 99d1 6fbd d1a3 00be
00000280: 4d0d a6bd 7ae5 f6bd 69ae 813c 88bf f1bd
00000290: b395 a03d 084e 593d d90a 0abe 2e28 eaba
000002a0: 8d21 6a3d 8881 283c 74cb f23d 87bc f03d
000002b0: 1dc5 aabd 6c1b 86bd f390 0fbe 81d7 8a3d
000002c0: 5a3b 9a3d 823e 05be d042 a83d e12f 223d
000002d0: dc70 16bd 812c c03d 5c8f 403d 2e82 d2bc
000002e0: 992b 07be 9606 12bc 25dc c8bc 566a ccbc
000002f0: 99d1 aebd e39b f73d 7199 0fbe eb50 08bd
00000300: f020 2bbe f19a 04be 742c 5fbd 4b98 80bd
00000310: 9e5f dbbd 66d6 07be de89 e33d 427e 02be
00000320: baeb 033e 4e6f 243a de70 7a3d 9e3f 98ba
00000330: 8eb5 80be e219 083d 17b8 8ebd e504 09bc
00000340: 49aa 28be 9e89 babd 151b 0a3e ad9a 82bd
00000350: 0145 c4bd 84fd a33d 7346 c3bd 5ef8 b6bc
00000360: 2807 033c add6 a4bd 81bf e7bd d807 eebd
00000370: 3b40 f93b 9814 ab3d be10 ae3d 1cab c43d
00000380: b6f7 3f3c 91a2 f93d ccb7 08be 7590 34be
00000390: 519c 80be 72da fb3d 1bf8 dcbd 8640 093e
000003a0: 00b8 a6bd 0103 c13d d972 dfbd 8cbc 003b
000003b0: 8d86 023c e240 10bc 5000 0c3d e4fa e3bd
000003c0: 73a4 1bbe 36a3 2a3c dd8b 843c e0bc d53d
000003d0: a65a 5cbc b7cb 4c3d a656 e83d 41c2 643d
000003e0: 55c7 03be 591e 0c3d 280c 97bd ca07 e6bd
000003f0: 027c 813d d152 0c3d 729d d53d e835 97bc

layer1.bias f4 [96]
0.0199741 -0.08201242 -0.03069438 -0.024418745 -0.08892775 -0.02048973 -0.05195205 -0.04599094
-0.01891405 0.05482288 -0.11599076 -0.11739746 0.116870396 -0.006976442 -0.02370204 -0.044456303
0.03053594 -0.11078824 0.12712133 0.097030945 -0.04185977 -0.086491026 -0.10479263 0.04900314
-0.10659238 0.10944542 -0.06783293 -0.007056442 -0.060373727 0.025447123 0.06366111 -0.11342964
-0.07133365 0.13902514 -0.029112708 0.044018164 0.002455029 -0.043718893 0.095395625 0.031994153
0.035512194 -0.11067839 -0.024807632 -0.031746704 0.045050412 -0.106134064 0.010773487 0.081906065
0.08011014 -0.116479 -0.08030125 0.08570968 -0.021900067 -0.042646706 0.11301581 0.047526307
0.020772463 -0.008792163 0.05385394 0.039933577 -0.055225406 -0.111970216 0.12790453 0.13705656
-0.10948317 0.02968533 -0.13966587 -0.012760255 0.13130885 -0.12426006 0.10358243 0.12279646
-0.06154774 -0.045239896 0.117451586 0.06704277 -0.09968949 0.014287548 -0.043990016 -0.019411048
0.079050824 -0.09411377 0.038729582 -0.0791533 0.001754045 -0.1263904 -0.012064483 0.122872345
-0.08820667 -0.030701842 -0.071265005 -0.016096128 0.08892977 -0.08819884 -0.010127536 -0.11465353
00000000: b9a0 a33c 21f6 a7bd c872 fbbc d209 c8bc
00000010: c11f b6bd 14da a7bc accb 54bd ff60 3cbd
00000020: a3f1 9abc f58d 603d 908c edbd 146e f0bd
00000030: bf59 ef3d a39a e4bb c82a c2bc d017 36bd
00000040: 8226 fa3c f2e4 e2bd 182c 023e 29b8 c63d
00000050: 2675 2bbd 3522 b1bd 859d d6bd 84b7 483d
00000060: 1b4d dabd ec24 e03d feeb 8abd ba39 e7bb
00000070: 714a 77bd 7c76 d03c c260 823d cd4d e8bd
00000080: 6017 92bd 9b5c 0e3e c67d eebc 644c 343d
00000090: 8de4 203b 9512 33bd c85e c33d 4d0c 033d
000000a0: 3c75 113d 5aab e2bd 6039 cbbc d508 02bd
000000b0: c886 383d d15c d9bd 4883 303c 5ebe a73d
000000c0: c910 a43d 8b8c eebd fb74 a4bd 8f88 af3d
000000d0: c567 b3bc 50ae 2ebd d574 e73d f2aa 423d
000000e0: 032b aa3c 010d 10bc f395 5c3d 6491 233d
000000f0: 0934 62bd a450 e5bd 68f9 023e 8e58 0c3e
00000100: b638 e0bd a62e f33c 9204 0fbe 6310 51bc
00000110: d475 063e 0f7c febd 0623 d43d b67c fb3d
00000120: 7c19 7cbd 784d 39bd 758a f03d b84d 893d
00000130: 012a ccbd 5216 6a3c e02e 34bd eb03 9fbc
00000140: 66e5 a13d b8be c0bd e9a2 1e3d 201b a2bd
00000150: fce7 e53a 7c6c 01be 1caa 45bc 7fa4 fb3d
00000160: b3a5 b4bd 6e82 fbbc 63f3 91bd 07dc 83bc
00000170: d020 b63d 98a1 b4bd f7ed 25bc 78cf eabd

layer_norm1.weight f4 [96]
0.98292065 0.9915202 0.97958523 0.97652507 1.0021316 0.9569193 0.98228514 0.979124
0.98237133 0.9821876 0.96566635 0.9719565 0.98330116 0.98407996 0.98990506 0.9821584
0.9973043 0.96931624 0.98982024 0.9777382 0.99150217 0.98154247 0.99130285 0.97836554
0.98537326 0.9875147 0.98371506 0.98699075 0.9983566 0.9923913 0.9865308 0.9829078
0.98380023 0.98044944 0.98281795 0.98457193 0.98290473 0.9874382 0.9743578 0.97804576
0.98318285 0.98291934 0.96988356 0.97979945 0.9750877 0.9938029 0.9778949 0.9824748
0.9877471 0.97314745 0.98193383 0.9669253 0.9763471 0.98290306 0.9880111 0.982996
0.9788628 0.9829907 0.9845453 0.98428917 0.99375176 0.97446394 0.97506094 0.97257143
0.98766494 0.97760123 1.005864 0.9853167 0.98322797 0.9814625 0.9859031 0.9856621
0.9887369 0.98008555 0.976587 0.9849818 0.9860593 1.0071888 0.9829404 0.9645239
0.9713175 0.9764549 0.98195493 1.0066094 0.99892145 0.9677446 0.9837981 0.9845489
0.9762841 0.9828215 0.98091495 0.9802764 0.9758488 0.98431593 0.97381413 0.97422653
00000000: b0a0 7b3f 45d4 7d3f 19c6 7a3f 8cfd 793f
00000010: d945 803f aaf8 743f 0a77 7b3f dfa7 7a3f
00000020: b07c 7b3f a670 7b3f e935 773f 24d2 783f
00000030: a0b9 7b3f aaec 7b3f 6b6a 7d3f bc6e 7b3f
00000040: 564f 7f3f 1c25 783f dc64 7d3f 0d4d 7a3f
00000050: 16d3 7d3f 5e46 7b3f 06c6 7d3f 2a76 7a3f
00000060: 6c41 7c3f c3cd 7c3f c0d4 7b3f 6dab 7c3f
00000070: 4c94 7f3f 5b0d 7e3f 488d 7c3f d89f 7b3f
00000080: 55da 7b3f bcfe 7a3f f599 7b3f e80c 7c3f
00000090: a59f 7b3f c0c8 7c3f 836f 793f 3561 7a3f
000000a0: dfb1 7b3f 9aa0 7b3f 4a4a 783f 23d4 7a3f
000000b0: 599f 793f de69 7e3f 5257 7a3f 7883 7b3f
000000c0: fedc 7c3f 3120 793f 0460 7b3f 6b88 773f
000000d0: e2f1 793f 899f 7b3f 4cee 7c3f a0a5 7b3f
000000e0: c196 7a3f 47a5 7b3f 290b 7c3f 60fa 7b3f
000000f0: 8466 7e3f 7876 793f 989d 793f 71fa 783f
00000100: 9cd7 7c3f 1344 7a3f 27c0 803f b73d 7c3f
00000110: d4b4 7b3f 2041 7b3f 2564 7c3f 5a54 7c3f
00000120: dd1d 7d3f e3e6 7a3f 9b01 7a3f c427 7c3f
00000130: 626e 7c3f 90eb 803f fba1 7b3f 0aeb 763f
00000140: 44a8 783f f3f8 793f 6661 7b3f 94d8 803f
00000150: 51b9 7f3f 1cbe 773f 31da 7b3f 660b 7c3f
00000160: c1ed 793f 319a 7b3f 3e1d 7b3f 65f3 7a3f
00000170: 3ad1 793f 21fc 7b3f e24b 793f e966 793f

layer_norm1.bias f4 [96]
-0.0010131134 -0.0059335213 -0.0028473178 -0.0066477545 -0.014943833 -0.012870937 -0.009023417 -0.002770048
-0.00587848 -0.0048543387 -0.013884842 -0.009875707 0.00021245927 -0.003539773 -0.007013255 -0.0026392601
-0.005116787 -0.005400942 -0.010104803 -0.00993534 0.0020916676 -0.0065687457 -0.0018441263 -0.0052161673
-0.0016641843 -0.005597038 -0.00536405 0.0009573329 0.0018121212 -0.0046247966 -0.004964676 -0.000900892
-0.0067795967 -0.008071286 -0.0053943833 -0.0060608857 -0.0008072834 -0.0007063905 -0.00836338 -0.010229235
-0.0046286006 4.852019e-05 -0.011115711 -0.0068814615 -0.010223414 -0.008493984 0.000520173 -0.0012931221
-0.005280822 -0.005831174 -0.005038363 -0.0132572325 -0.007717437 -0.0005484555 -0.0024163974 -0.002494283
-0.0048231077 0.00052497134 -0.004204208 -0.003456482 0.0025798983 -0.007862986 -0.0055129165 -0.010940919
0.0005105686 -0.009662103 -0.0021308663 -0.009599821 -0.0045425007 -0.010100719 -0.0020163301 -0.002337063
-0.0030909304 -0.017989803 -0.006715082 -0.0020943584 -0.0029900642 -0.011338088 -0.0030355968 -0.010942398
-0.014837314 -0.006856819 -0.010523425 0.0010008087 -0.0010626303 -0.008572524 0.0015229968 -0.00018295374
-0.007814603 -0.00063977635 -0.0065186378 -0.0035185234 -0.0065181986 -0.003142212 -0.013813823 -0.008849198
00000000: 72ca 84ba fc6d c2bb 119a 3abb 68d5 d9bb
00000010: fbd6 74bc 9fe0 52bc f4d6 13bc b289 35bb
00000020: 44a0 c0bb 2511 9fbb 407d 63bc b8cd 21bc
00000030: 9ac7 5e39 89fb 67bb 72cf e5bb 70f7 2cbb
00000040: b8aa a7bb 63fa b0bb 9e8e 25bc d6c7 22bc
00000050: 5c14 093b a23e d7bb 9cb6 f1ba 62ec aabb
00000060: c220 daba 5c67 b7bb eac4 afbb 86f5 7a3a
00000070: b384 ed3a 9b8b 97bb b9ae a2bb d729 6cba
00000080: 6127 debb 6d3d 04bc 5ec3 b0bb 659a c6bb
00000090: df9f 53ba 102d 39ba 8f06 09bc 8598 27bc
000000a0: 84ab 97bb 2882 4b38 ac1e 36bc e27d e1bb
000000b0: 1b80 27bc 5a2a 0bbc 385c 083a fa7d a9ba
000000c0: bf0a adbb 6f13 bfbb da18 a5bb dd34 59bc
000000d0: 8ee2 fcbb 3ac6 0fba 6c5c 1ebb 2077 23bb
000000e0: 290b 9ebb 3b9e 093a 74c3 89bb 2586 62bb
000000f0: 8313 293b c1d3 00bc b2a5 b4bb 8a41 33bc
00000100: aed7 053a cc4d 1ebc 01a6 0bbb 9148 1dbc
00000110: 42d9 94bb 7c7d 25bc 6824 04bb 6929 19bb
00000120: 3591 4abb 5a5f 93bc 310a dcbb 8141 09bb
00000130: f4f4 43bb 63c3 39bc ddf0 46bb be47 33bc
00000140: 3518 73bc 2baf e0bb 726a 2cbc 912d 833a
00000150: f547 8bba c673 0cbc 4b9f c73a 45d7 3fb9
00000160: d208 00bc aab6 27ba 4c9a d5bb 0797 66bb
00000170: 9d96 d5bb 92ed 4dbb 6053 62bc 3afc 10bc

layer2.weight f4 [48, 96]
-0.033673357 -0.042398416 -0.006770834 -0.021749575 0.087950364 0.009046382 -0.050755486 -0.053839773
0.02315326 0.076918565 0.0066611567 0.08686313 -0.083397225 0.0663875 -0.026754754 -0.06873647
0.064957485 -0.054611407 0.06904486 0.030107174 -0.08333182 0.029105552 -0.07783348 0.075493544
-0.05338675 -0.06718771 0.05581438 -0.084277175 0.0525828 -0.08393634 -0.0536096 -0.08210863
0.064145975 0.050923124 -0.0050563365 -0.013876321 0.08859716 0.06465676 0.09833109 0.021567132
0.03137755 0.009818092 -0.082915604 0.0024707797 -0.09879033 0.07167729 -0.090367064 0.0068429545
-0.076152004 0.02394858 0.0071703633 -0.055975422 -0.0030349144 0.059261993 -0.060825806 0.04850466
-0.024747482 -0.083403535 0.04874903 0.037418935 0.029022649 0.017070692 0.07422304 -0.044052612
-0.06276727 -0.08455529 -0.04724644 -0.011772642 0.04898919 0.068518505 0.006925905 0.054770865
-0.05454564 -0.021011144 -0.023023408 -0.04072887 0.08538029 -0.013787121 -0.09660712 -0.030445924
-0.068212576 0.088123165 -0.0084834 -0.058273245 -0.0544696 -0.032960698 -0.0020584115 -0.088227965
-0.04750402 -0.04415633 -0.083893314 -0.065934986 -0.042409044 -0.029761558 0.075948 0.09005694
0.04652786 -0.08641764 0.077904604 -0.08217249 -0.07463033 -0.042989697 0.037939318 -0.030065615
0.0013908284 -0.034640346 0.039678715 0.02438665 -0.004894425 -0.06590448 0.08561846 0.035201788
-0.04892104 0.035480652 0.0063689863 0.033014446 -0.022699572 -0.07629492 0.047826923 -0.015215145
0.0025972272 0.01688025 -0.03995664 0.06022125 0.101126045 -0.07589135 0.05620232 -0.078293726
-0.09817152 0.06446955 -0.05253112 0.028450964 -0.08578527 0.08587326 -0.039860364 -0.07877522
0.07313063 0.062969096 -0.0583058 0.08482203 0.05071143 0.047840048 -0.091939725 0.015922496
-0.094732165 -0.027714001 0.06711212 0.030999487 0.05281957 -0.071934216 -0.032626458 -0.055543397
-0.031167712 -0.070045814 0.028494632 0.04621923 -0.10451789 -0.028405476 0.085473225 0.016171547
0.097303376 -0.022198467 -0.025137113 -0.055286516 0.053569093 -0.017099282 -0.09475791 -0.084377445
-0.046331014 -0.05121988 -0.09808605 -0.04778172 -0.077942945 -0.03101075 0.0074751303 0.03315092
-0.027635705 -0.09401307 0.09027379 -0.047879826 0.0076220194 0.03093955 -0.042915862 -0.06873911
0.09213831 0.027649866 -0.02956114 -0.067836225 -0.040643636 0.062915035 0.04774885 0.0007618124
0.074959 0.039658654 0.021698516 0.00396388 0.08996218 -0.09274708 0.04816368 -0.08717806
-0.02520746 -0.09049535 -0.07726104 0.07246517 -0.040626008 0.016347846 0.015695313 -0.0933242
0.0003398733 0.027867777 0.07412234 -0.070294075 -0.07608686 0.01776979 -0.05565846 0.08093381
-0.012492725 -0.045090813 -0.069599524 -0.07239311 -0.057160422 -0.060086302 -0.08104737 0.08352574
0.08493729 -0.059686787 -0.08829959 -0.05902483 -0.07543368 0.0037122308 -0.04284834 -0.065102756
-0.03619261 -0.05940718 0.06130586 0.054904163 0.029856078 0.09110376 0.0891964 0.06924833
0.07934974 0.076952346 -0.023243401 -0.05877908 -0.010568163 -0.028297523 0.06766976 0.05884379
-0.061528247 0.06670721 -0.054174725 -0.027568216 0.06134403 0.06927927 -0.011352296 0.111930944
00000000: 13ed 09bd f6a9 2dbd dfdd ddbb 2a2c b2bc
00000010: 521f b43d 4737 143c fce4 4fbd 1887 5cbd
00000020: e8ab bd3c 7b87 9d3d d545 da3b 4ce5 b13d
00000030: 2acc aabd 2bf6 873d c92c dbbc b5c5 8cbd
00000040: 6e08 853d 36b0 5fbd 6467 8d3d 52a3 f63c
00000050: e0a9 aabd c46e ee3c 2967 9fbd 5c9c 9a3d
00000060: 11ac 5abd b699 89bd 9f9d 643d 8399 acbd
00000070: 1061 573d d1e6 abbd bd95 5bbd 9228 a8bd
00000080: f75e 833d c494 503d a0af a5bb 8259 63bc
00000090: 6e72 b53d c36a 843d cf61 c93d 8ead b03c
000000a0: bf85 003d 10dc 203c a8cf a9bd ceec 213b
000000b0: 9652 cabd 8bcb 923d 5e12 b9bd dd3a e03b
000000c0: 95f5 9bbd d02f c43c 5ef5 ea3b 7c46 65bd
000000d0: 6ae5 46bb b4bc 723d 7b24 79bd d3ac 463d
000000e0: 3bbb cabc 79cf aabd 10ad 473d 9944 193d
000000f0: e8c0 ed3c d6d7 8b3c 4002 983d 8370 34bd
00000100: 208c 80bd 532b adbd 7c85 41bd 0ae2 40bc
00000110: e4a8 483d 6e53 8c3d b4f2 e23b 6a57 603d
00000120: 406b 5fbd 901f acbc 969b bcbc 51d3 26bd
00000130: dddb ae3d 60e3 61bc f4d9 c5bd bb69 f9bc
00000140: 09b3 8bbd eb79 b43d f5fd 0abc edaf 6ebd
00000150: 841b 5fbd cc01 07bd 6ae6 06bb ddb0 b4bd
00000160: 9393 42bd 45dd 34bd 42d0 abbd ec08 87bd
00000170: 1bb5 2dbd 83ce f3bc a08a 9b3d c66f b83d
00000180: ff93 3e3d bbfb b0bd 738c 9f3d 0d4a a8bd
00000190: c9d7 98bd f715 30bd 4266 1b3d 2a4c f6bc
000001a0: 754c b63a 09e3 0dbd 2686 223d 83c6 c73c
000001b0: 6a61 a0bb eef8 86bd bb58 af3d c02f 103d
000001c0: 6e61 48bd 2954 113d eeb2 d03b 283a 073d
000001d0: 74f4 b9bc 8340 9cbd 2ae6 433d f248 79bc
000001e0: 3e36 2a3b 7348 8a3c 93a9 23bd 8faa 763d
000001f0: 2c1b cf3d ed6c 9bbd 6734 663d 7658 a0bd
00000200: 260e c9bd 9d08 843d df2a 57bd ff11 e93c
00000210: 30b0 afbd 52de af3d 9f44 23bd e754 a1bd
00000220: 83c5 953d f1f5 803d 10d2 6ebd 2cb7 ad3d
00000230: cab6 4f3d edf3 433d e54a bcbd e56f 823c
00000240: f002 c2bd 7908 e3bc 1472 893d a3f2 fd3c
00000250: 5559 583d 3f52 93bd 52a3 05bd 7981 63bd
00000260: 6e53 ffbc 2e74 8fbd 936d e93c 6050 3d3d
00000270: 7a0d d6bd 9ab2 e8bc 960c af3d 317a 843c
00000280: fe46 c73d 8fd9 b5bc 59ec cdbc 1d74 62bd
00000290: 446b 5b3d cb13 8cbc 6f10 c2bd 15ce acbd
000002a0: 97c5 3dbd f0cb 51bd 57e1 c8bd c4b6 43bd
000002b0: 8da0 9fbd 420a febc f0f1 f43b 42c9 073d
000002c0: 4664 e2bc ed89 c0bd 77e1 b83d a31d 44bd
000002d0: 22c2 f93b f074 fd3c 8bc8 2fbd 17c7 8cbd
000002e0: 03b3 bc3d f981 e23c 342a f2bc b8ed 8abd
000002f0: f179 26bd 99d9 803d 4c94 433d 5db4 473a
00000300: 1b84 993d 1d71 223d 16c1 b13c 6fe3 813b
00000310: 173e b83d 2ef2 bdbd 4747 453d 698a b2bd
00000320: e07f cebc a055 b9bd 093b 9ebd 9e68 943d
00000330: 7567 26bd ebeb 853c 7593 803c c220 bfbd
00000340: 0631 b239 f74a e43c 74cd 973d 57f6 8fbd
00000350: 6dd3 9bbd f391 913c 20fa 63bd a0c0 a53d
00000360: 49ae 4cbc 25b1 38bd 328a 8ebd d742 94bd
00000370: 0c21 6abd 0e1d 76bd 2afc a5bd 8b0f ab3d
00000380: 9af3 ad3d 227a 74bd 6ad6 b4bd 05c4 71bd
00000390: f97c 9abd e648 733b be81 2fbd 9854 85bd
000003a0: b43e 14bd f154 73bd da1b 7b3d 30e3 603d
000003b0: bc94 f43c 9c94 ba3d 9aac b63d 12d2 8d3d
000003c0: 1e82 a23d 3199 9d3d f268 bebc 55c2 70bd
000003d0: 1726 2dbc 35d0 e7bc 7196 8a3d 3006 713d
000003e0: 0b05 7cbd ca9d 883d 51e6 5dbd bdd6 e1bc
000003f0: e143 7b3d 4ae2 8d3d fbfe 39bc 0d3c e53d

layer2.bias f4 [48]
0.07023385 0.04836095 -0.09288364 0.088953055 0.07859584 0.073702596 0.005485639 -0.03979023
0.0051995567 -0.07640994 -0.026317304 0.0026653705 -0.05589262 0.08719661 -0.08675228 -0.07591972
-0.09053419 0.083544455 0.044459317 0.06538176 -0.007993298 -0.031061267 -0.07429709 0.023292199
-0.057972625 -0.029758308 -0.038570095 -0.0086128 0.10599772 -0.06885389 -0.08958451 0.011437664
0.048133783 0.053355284 -0.053650767 0.09801091 -0.025862133 -0.0339002 0.03370749 -0.0047943853
0.025638804 0.07815037 -0.05634597 0.07531593 0.043075435 -0.009820182 0.00096400816 0.0066053397
00000000: c4d6 8f3d 2216 463d c739 bebd 052d b63d
00000010: dbf6 a03d 63f1 963d e0c0 b33b 15fb 22bd
00000020: 0b61 aa3b d17c 9cbd 6397 d7bc 7fad 2e3b
00000030: a9ef 64bd 2394 b23d 2eab b1bd cc7b 9bbd
00000040: fd69 b9bd 5b19 ab3d f91a 363d dfe6 853d
00000050: 52f6 02bc 3374 febc 1329 98bd 48cf be3c
00000060: b474 6dbd b2c7 f3bc adfb 1dbd b41c 0dbc
00000070: 5515 d93d 4503 8dbd 1578 b7bd 0a65 3b3c
00000080: ee27 453d 128b 5a3d e8c0 5bbd f2b9 c83d
00000090: d3dc d3bc f0da 0abd dd10 0a3d 381a 9dbb
000000a0: 7808 d23c 4d0d a03d 08cb 66bd 3d3f 9a3d
000000b0: de6f 303d d4e4 20bc 7eb5 7c3a 9b71 d83b

layer_norm2.weight f4 [48]
0.9837631 0.9895949 0.9802897 0.9859284 0.9918406 0.9840586 0.98267514 0.98286366
0.9836063 0.9976934 1.0086578 1.0022453 1.0189935 0.9825733 0.98819643 0.99720556
0.9923489 0.9909948 0.98717284 0.98311543 0.99475354 0.98284304 0.9823937 0.9841225
0.9851114 0.98552257 0.98226565 1.0099343 0.98607725 0.9852411 1.0060053 0.9873874
0.9825654 0.97304267 0.9934221 0.9885483 0.9863493 0.9890967 0.98916245 0.98128384
0.9853305 1.0094484 0.98561054 0.99014235 1.0031973 0.98210204 0.98435235 0.9886945
00000000: e6d7 7b3f 1756 7d3f 44f4 7a3f ce65 7c3f
00000010: 44e9 7d3f 44eb 7b3f 9990 7b3f f49c 7b3f
00000020: 9fcd 7b3f d668 7f3f b31b 813f 9349 803f
00000030: 616e 823f ec89 7b3f 71fa 7c3f dd48 7f3f
00000040: 940a 7e3f d6b1 7d3f 5cb7 7c3f 74ad 7b3f
00000050: 2ba8 7e3f 9a9b 7b3f 277e 7b3f 74ef 7b3f
00000060: 4330 7c3f 354b 7c3f c375 7b3f 8745 813f
00000070: 8f6f 7c3f c338 7c3f c8c4 803f 6cc5 7c3f
00000080: 6889 7b3f 5319 793f e950 7e3f 8011 7d3f
00000090: 6381 7c3f 7135 7d3f c039 7d3f 6b35 7b3f
000000a0: 9f3e 7c3f 9b35 813f f950 7c3f f879 7d3f
000000b0: c568 803f 0a6b 7b3f 84fe 7b3f 151b 7d3f

layer_norm2.bias f4 [48]
0.0020453436 -0.0018001521 0.0044715498 -0.0009093937 -0.0002686919 -0.0031750384 8.382267e-05 0.0016745192
0.0024086318 0.002437648 0.0011279334 0.0030497003 0.008945822 -7.4816366e-05 -0.0015901334 -0.004198706
0.0019553823 -0.0019185792 0.0043524303 -0.0042333426 0.0002811371 0.0017764686 -0.0005900146 -0.005323106
-0.0003408277 -0.00035300283 0.0008247454 -0.0032472995 0.0012652926 -0.0010321548 0.0055528292 -0.0007375658
-0.0025388917 0.0026045518 -0.0015689699 0.007212462 -0.00331073 0.0068037203 0.0013856048 0.0004261261
0.008347266 -0.0026688138 0.0014001176 -0.0015589743 0.0005960336 -0.002040755 -0.00020105483 0.0064641032
00000000: 2c0b 063b 15f3 ebba 1486 923b 6164 6eba
00000010: 37df 8cb9 4e14 50bb f4c9 af38 8a7b db3a
00000020: 23da 1d3b f2c0 1f3b 2ad7 933a 7bdd 473b
00000030: 7f91 123c bbe6 9cb8 066c d0ba 4c95 89bb
00000040: df25 003b d678 fbba d59e 8e3b dab7 8abb
00000050: 9565 9339 65d8 e83a 36ab 1aba 736d aebb
00000060: 1fb1 b2b9 3d13 b9b9 ba33 583a a5d0 54bb
00000070: 2dd8 a53a 5e49 87ba 82f4 b53b 3459 41ba
00000080: 8963 26bb 21b1 2a3b e5a5 cdba 8456 ec3b
00000090: d5f8 58bb bef1 de3b 2f9d b53a ad69 df39
000000a0: f9c2 083c 44e7 2ebb 2784 b73a 7f56 ccba
000000b0: 233f 1c3a 30be 05bb 3fd2 52b9 d4d0 d33b

output_layer.weight f4 [1, 48]
0.09487251 0.12522845 -0.04682802 0.12771013 -0.16550343 0.084081404 0.017907532 0.124638826
-0.063372135 -0.1792147 -0.22992004 0.236342 0.2922402 0.009241069 0.13113803 -0.20540592
0.15639344 0.1463971 0.16237223 -0.101146154 -0.16169183 0.037200924 0.015881997 0.13058214
0.07959102 0.13068855 -0.052931525 -0.2597303 -0.09745325 -0.084180854 -0.22205481 0.16946553
0.10600911 0.023558129 0.18789205 0.15750322 0.11640414 -0.17689803 0.1702027 0.012723778
0.14946161 -0.27998713 -0.08830865 -0.12747432 0.22746083 0.030963046 -0.08006677 -0.1372186
00000000: 854c c23d e33b 003e bdce 3fbd 72c6 023e
00000010: bb79 29be df32 ac3d d1b2 923c a442 ff3d
00000020: 40c9 81bd 0f84 37be 2970 6bbe a303 723e
00000030: 82a0 953e da67 173c 0c49 063e ee55 52be
00000040: 9a25 203e 1fe9 153e e844 263e b725 cfbd
00000050: 8b92 25be ff5f 183d f61a 823c 53b7 053e
00000060: 9e00 a33d 38d3 053e bace 58bd 5ffb 84be
00000070: 9295 c7bd 0367 acbd 5662 63be 5f88 2d3e
00000080: 4e1b d93d fafc c03c c666 403e 8648 213e
00000090: 4b65 ee3d c224 35be 9e49 2e3e 6577 503c
000000a0: 770c 193e 795a 8fbe 2adb b4bd a188 02be
000000b0: 7eeb 683e 37a6 fd3c 0cfa a3bd 0883 0cbe
